my_transformer_with_params.pth (torch, 326034 bytes, 71 tensors)

mean f4 [4]
5.8091664 3.0616667 3.7266667 1.1833333
00000000: b1e4 b940 59f2 4340 b581 6e40 7777 973f

scale f4 [4]
0.82036537 0.44724774 1.7450279 0.74914765
00000000: 7703 523f a8fd e43e 135d df3f 24c8 3f3f

positional_encoding f4 [1, 100, 4]
0.00237317 0.006234692 0.00016528292 0.0017556524 0.0 0.0 0.0 0.0
0.0 0.0 0.0 0.0 0.0 0.0 0.0 0.0
0.0 0.0 0.0 0.0 0.0 0.0 0.0 0.0
0.0 0.0 0.0 0.0 0.0 0.0 0.0 0.0
0.0 0.0 0.0 0.0 0.0 0.0 0.0 0.0
0.0 0.0 0.0 0.0 0.0 0.0 0.0 0.0
0.0 0.0 0.0 0.0 0.0 0.0 0.0 0.0
0.0 0.0 0.0 0.0 0.0 0.0 0.0 0.0
0.0 0.0 0.0 0.0 0.0 0.0 0.0 0.0
0.0 0.0 0.0 0.0 0.0 0.0 0.0 0.0
0.0 0.0 0.0 0.0 0.0 0.0 0.0 0.0
0.0 0.0 0.0 0.0 0.0 0.0 0.0 0.0
0.0 0.0 0.0 0.0 0.0 0.0 0.0 0.0
0.0 0.0 0.0 0.0 0.0 0.0 0.0 0.0
0.0 0.0 0.0 0.0 0.0 0.0 0.0 0.0
0.0 0.0 0.0 0.0 0.0 0.0 0.0 0.0
0.0 0.0 0.0 0.0 0.0 0.0 0.0 0.0
0.0 0.0 0.0 0.0 0.0 0.0 0.0 0.0
0.0 0.0 0.0 0.0 0.0 0.0 0.0 0.0
0.0 0.0 0.0 0.0 0.0 0.0 0.0 0.0
0.0 0.0 0.0 0.0 0.0 0.0 0.0 0.0
0.0 0.0 0.0 0.0 0.0 0.0 0.0 0.0
0.0 0.0 0.0 0.0 0.0 0.0 0.0 0.0
0.0 0.0 0.0 0.0 0.0 0.0 0.0 0.0
0.0 0.0 0.0 0.0 0.0 0.0 0.0 0.0
0.0 0.0 0.0 0.0 0.0 0.0 0.0 0.0
0.0 0.0 0.0 0.0 0.0 0.0 0.0 0.0
0.0 0.0 0.0 0.0 0.0 0.0 0.0 0.0
0.0 0.0 0.0 0.0 0.0 0.0 0.0 0.0
0.0 0.0 0.0 0.0 0.0 0.0 0.0 0.0
0.0 0.0 0.0 0.0 0.0 0.0 0.0 0.0
0.0 0.0 0.0 0.0 0.0 0.0 0.0 0.0
00000000: 3087 1b3b 634c cc3b cc4f 2d39 eb1d e63a
00000010: 0000 0000 0000 0000 0000 0000 0000 0000
00000020: 0000 0000 0000 0000 0000 0000 0000 0000
00000030: 0000 0000 0000 0000 0000 0000 0000 0000
00000040: 0000 0000 0000 0000 0000 0000 0000 0000
00000050: 0000 0000 0000 0000 0000 0000 0000 0000
00000060: 0000 0000 0000 0000 0000 0000 0000 0000
00000070: 0000 0000 0000 0000 0000 0000 0000 0000
00000080: 0000 0000 0000 0000 0000 0000 0000 0000
00000090: 0000 0000 0000 0000 0000 0000 0000 0000
000000a0: 0000 0000 0000 0000 0000 0000 0000 0000
000000b0: 0000 0000 0000 0000 0000 0000 0000 0000
000000c0: 0000 0000 0000 0000 0000 0000 0000 0000
000000d0: 0000 0000 0000 0000 0000 0000 0000 0000
000000e0: 0000 0000 0000 0000 0000 0000 0000 0000
000000f0: 0000 0000 0000 0000 0000 0000 0000 0000
00000100: 0000 0000 0000 0000 0000 0000 0000 0000
00000110: 0000 0000 0000 0000 0000 0000 0000 0000
00000120: 0000 0000 0000 0000 0000 0000 0000 0000
00000130: 0000 0000 0000 0000 0000 0000 0000 0000
00000140: 0000 0000 0000 0000 0000 0000 0000 0000
00000150: 0000 0000 0000 0000 0000 0000 0000 0000
00000160: 0000 0000 0000 0000 0000 0000 0000 0000
00000170: 0000 0000 0000 0000 0000 0000 0000 0000
00000180: 0000 0000 0000 0000 0000 0000 0000 0000
00000190: 0000 0000 0000 0000 0000 0000 0000 0000
000001a0: 0000 0000 0000 0000 0000 0000 0000 0000
000001b0: 0000 0000 0000 0000 0000 0000 0000 0000
000001c0: 0000 0000 0000 0000 0000 0000 0000 0000
000001d0: 0000 0000 0000 0000 0000 0000 0000 0000
000001e0: 0000 0000 0000 0000 0000 0000 0000 0000
000001f0: 0000 0000 0000 0000 0000 0000 0000 0000
00000200: 0000 0000 0000 0000 0000 0000 0000 0000
00000210: 0000 0000 0000 0000 0000 0000 0000 0000
00000220: 0000 0000 0000 0000 0000 0000 0000 0000
00000230: 0000 0000 0000 0000 0000 0000 0000 0000
00000240: 0000 0000 0000 0000 0000 0000 0000 0000
00000250: 0000 0000 0000 0000 0000 0000 0000 0000
00000260: 0000 0000 0000 0000 0000 0000 0000 0000
00000270: 0000 0000 0000 0000 0000 0000 0000 0000
00000280: 0000 0000 0000 0000 0000 0000 0000 0000
00000290: 0000 0000 0000 0000 0000 0000 0000 0000
000002a0: 0000 0000 0000 0000 0000 0000 0000 0000
000002b0: 0000 0000 0000 0000 0000 0000 0000 0000
000002c0: 0000 0000 0000 0000 0000 0000 0000 0000
000002d0: 0000 0000 0000 0000 0000 0000 0000 0000
000002e0: 0000 0000 0000 0000 0000 0000 0000 0000
000002f0: 0000 0000 0000 0000 0000 0000 0000 0000
00000300: 0000 0000 0000 0000 0000 0000 0000 0000
00000310: 0000 0000 0000 0000 0000 0000 0000 0000
00000320: 0000 0000 0000 0000 0000 0000 0000 0000
00000330: 0000 0000 0000 0000 0000 0000 0000 0000
00000340: 0000 0000 0000 0000 0000 0000 0000 0000
00000350: 0000 0000 0000 0000 0000 0000 0000 0000
00000360: 0000 0000 0000 0000 0000 0000 0000 0000
00000370: 0000 0000 0000 0000 0000 0000 0000 0000
00000380: 0000 0000 0000 0000 0000 0000 0000 0000
00000390: 0000 0000 0000 0000 0000 0000 0000 0000
000003a0: 0000 0000 0000 0000 0000 0000 0000 0000
000003b0: 0000 0000 0000 0000 0000 0000 0000 0000
000003c0: 0000 0000 0000 0000 0000 0000 0000 0000
000003d0: 0000 0000 0000 0000 0000 0000 0000 0000
000003e0: 0000 0000 0000 0000 0000 0000 0000 0000
000003f0: 0000 0000 0000 0000 0000 0000 0000 0000

input_linear.weight f4 [4, 4]
0.16404213 0.014770844 0.031403318 0.3410661 0.27522323 0.2701049 0.10665732 0.19308338
0.4021815 -0.13655056 0.18107489 -0.10663554 0.31270406 -0.043582104 -0.40283555 0.29595867
00000000: a9fa 273e 6901 723c c4a0 003d 37a0 ae3e
00000010: 0fea 8c3e 304b 8a3e 276f da3d a6b7 453e
00000020: bcea cd3e e9d3 0bbe b26b 393e bc63 dabd
00000030: bf1a a03e 2683 32bd 7640 cebe e587 973e

input_linear.bias f4 [4]
-0.4026934 -0.3733351 0.02467966 -0.37370664
00000000: d42d cebe c725 bfbe 002d ca3c 7a56 bfbe

transformer.encoder.layers.0.self_attn.in_proj_weight f4 [12, 4]
-0.47503415 0.13263744 0.15573746 0.057108704 0.08437099 0.51045907 0.0894374 0.31374952
0.21952386 0.60692847 -0.5670974 -0.078049876 0.14703663 0.529328 -0.12252018 -0.41404328
0.27004606 -0.1466533 -0.07518932 -0.1800551 0.21311842 0.4789332 -0.13360152 0.2754754
-0.6141549 -0.06262165 -0.5735236 -0.46672523 0.5361752 0.3179439 -0.06473869 -0.07813554
-0.35593396 0.49257967 -0.25320026 -0.44830397 0.041503336 -0.28297457 -0.1746602 0.55353653
0.47806925 -0.03586216 0.3326552 0.24967694 -0.11473669 -0.13432844 -0.060245395 -0.033677086
00000000: ad37 f3be 1cd2 073e a479 1f3e d1ea 693d
00000010: b3ca ac3d 72ad 023f f52a b73d c7a3 a03e
00000020: ddca 603e aa5f 1b3f 4c2d 11bf 9dd8 9fbd
00000030: c590 163e 0a82 073f dceb fabd 7bfd d3be
00000040: 7a43 8a3e 482c 16be dcfc 99bd 5d60 38be
00000050: b73b 5a3e bb36 f53e d6ce 08be 1d0b 8d3e
00000060: 4139 1dbf c83f 80bd 71d2 12bf 9cf6 eebe
00000070: c742 093f 8bc9 a23e b895 84bd 8705 a0bd
00000080: fa3c b6be 6733 fc3e 77a3 81be 1988 e5be
00000090: 67ff 293d 0be2 90be 20da 32be 92b4 0d3f
000000a0: 7ec5 f43e 33e4 12bd c851 aa3e 50ab 7f3e
000000b0: 12fb eabd 658d 09be e0c3 76bd fcf0 09bd

transformer.encoder.layers.0.self_attn.in_proj_bias f4 [12]
0.0034653523 0.008082048 -0.0010175166 0.0011528193 2.697576e-06 -2.0941241e-05 -1.0220031e-05 1.5848454e-07
-0.005529153 -0.00085990026 -0.00042919922 -0.006487409
00000000: f71a 633b 916a 043c 315e 85ba 321a 973a
00000010: 0108 3536 f9aa afb7 b376 2bb7 e62b 2a34
00000020: e62d b5bb ee6a 61ba 2506 e1b9 5594 d4bb

transformer.encoder.layers.0.self_attn.out_proj.weight f4 [4, 4]
0.09413137 -0.6771618 -0.38009128 -0.49260566 0.15193729 -0.46335986 -0.28437778 0.03107334
-0.18765871 0.6624102 0.49897844 0.10722942 -0.48477408 -0.13941069 -0.006842774 -0.3672559
00000000: f3c7 c03d 7a5a 2dbf 539b c2be cf36 fcbe
00000010: 7395 1b3e 813d edbe f799 91be 848d fe3c
00000020: 9b29 40be b793 293f 1a7a ff3e 199b db3d
00000030: 4f34 f8be adc1 0ebe 5939 e0bb f708 bcbe

transformer.encoder.layers.0.self_attn.out_proj.bias f4 [4]
-0.0009983534 -0.0036596935 -0.0032253824 0.0064078565
00000000: 2edb 82ba 78d7 6fbb f060 53bb fff8 d13b

transformer.encoder.layers.0.linear1.weight f4 [2048, 4]
0.035194848 0.013207064 -0.014450837 0.0039648963 0.012465078 0.026149612 -0.021301106 0.04260621
9.141583e-05 0.045907788 -0.0073246458 -0.010893799 -0.038938 -0.028641837 -0.035220727 0.046451353
-0.020451948 -0.0060886964 0.042459983 0.049730483 0.044354107 0.044020936 -0.022178078 0.043722797
0.04622839 0.010267095 0.04626037 0.04313508 0.00547266 0.010348637 -0.03137306 -0.033344775
0.041065745 0.04892113 -0.047243696 -0.03743743 -0.023659945 -0.043622583 -0.009739481 -0.044239808
0.011597384 0.004461512 0.0030690394 -0.031003749 0.016524363 0.0209038 0.048028883 0.017054548
-0.024298899 0.023573069 0.04883305 -0.013938466 0.01898553 0.05540536 -0.031815417 -0.0068534287
0.020542298 -0.0337747 0.024531145 0.05057419 -0.00029521808 -0.02861547 -0.027452387 -0.043551013
-0.008483223 0.007957673 0.04830207 -0.017333236 0.04041449 -0.011165496 0.027446851 -0.010114579
0.04226456 0.0484323 -0.008010435 0.012101614 -0.028979462 -0.026566215 0.04851001 0.021013375
-0.02215441 -0.053175837 0.0038313249 -0.010480453 -0.042331323 -0.025404653 0.016994739 -0.033050925
0.022144247 -0.0005899407 0.05392805 -0.029871982 -0.002191794 0.05499878 0.00079938653 -0.033020284
0.014513835 0.027797429 -0.018226935 -0.039045375 -0.05289683 0.0016955803 -0.0050501167 0.028408134
0.026961442 -0.051292565 0.023465019 -0.051199865 -0.036858965 -0.042223185 -0.041433018 -0.03295751
0.04254103 0.04657964 -0.013247419 0.050478842 0.03438681 0.018204788 0.00028636525 0.05158903
0.011954483 -0.041633703 -0.008304898 -0.019380882 -0.029761039 -0.015070685 -0.038303994 0.0012968691
-0.017919976 -0.042413283 -0.050766584 0.0019796018 -0.035274815 0.018601364 -0.015038274 -0.02936228
-0.0036695786 -0.012884483 -0.027696146 0.05085579 -0.013356412 -0.027082827 0.043604687 -0.03738321
-0.00047852073 -0.03688555 0.04306795 -0.010937072 -0.045607384 -0.0068056323 0.051914047 -0.014918707
-0.049501635 0.029798899 -0.03862187 0.03328316 0.03355891 0.015641775 0.023296554 -0.030478077
0.016800007 -0.024704749 -0.0572061 -0.009918672 0.031121925 0.013230728 0.03958514 -0.0170564
0.027216785 0.010401522 -0.0020780491 -0.008271095 0.04620933 0.026377378 0.039368715 -0.00798047
-0.014426558 -0.008769441 -0.0023925346 0.011266936 0.0033874586 0.021291327 0.018721592 0.0007838346
-0.029509949 -0.012542561 -0.037521873 0.018036159 0.042393345 0.04387724 -0.019976754 0.03189474
-0.05249929 0.013304833 -0.031881664 -0.052353363 -0.04099514 -0.012900632 0.009558145 -0.016599603
-0.037965726 0.022966467 0.02952639 -0.025224665 0.02577032 0.036392074 0.040717725 -0.010911533
0.038158618 0.044417936 0.036124796 0.04221483 -0.05187172 -0.014549768 0.049667127 -0.045691766
0.0068233074 -0.036442485 5.3753116e-05 0.045892656 0.0027862121 -0.027492391 -0.037341066 0.0067062173
0.041695565 0.03293251 0.033028096 0.0054016127 0.0077118874 -0.012052223 0.033458892 0.021578249
0.012798704 -0.014029349 0.03465352 0.052187797 0.03738189 0.028724354 0.025098193 0.041173887
-0.046248823 -0.0035812452 0.008503595 -0.03181915 -0.026957963 -0.019074118 -0.043688107 0.043192897
-0.051176105 -0.02123559 0.012189426 0.004719656 0.023862345 -0.040758293 0.022285921 0.015968964
00000000: 7928 103d 7162 583c 34c3 6cbc f6eb 813b
00000010: 543a 4c3c b637 d63c a87f aebc d983 2e3d
00000020: 80b6 bf38 ce09 3c3d 9503 f0bb e87b 32bc
00000030: 747d 1fbd 49a2 eabc 9c43 10bd c643 3e3d
00000040: d88a a7bc b083 c7bb 85ea 2d3d 31b2 4b3d
00000050: a7ac 353d 4c4f 343d cdae b5bc ad16 333d
00000060: fb59 3d3d 5137 283c 847b 3d3d 69ae 303d
00000070: 0054 b33b 548d 293c 0a81 00bd 8894 08bd
00000080: 8e34 283d 8661 483d 9b82 41bd fe57 19bd
00000090: 80d2 c1bc 98ad 32bd 5892 1fbc cd34 35bd
000000a0: f402 3e3c e031 923b f021 493b 93fb fdbc
000000b0: 1a5e 873c 723e ab3c efb9 443d fbb5 8b3c
000000c0: 7c0e c7bc 4f1c c13c 2a05 483d 2a5e 64bc
000000d0: 8b87 9b3c bbf0 623d e250 02bd ba92 e0bb
000000e0: 5248 a83c 5757 0abd 8af5 c83c e226 4f3d
000000f0: 80c7 9ab9 fd6a eabc d4e3 e0bc 8c62 32bd
00000100: 37fd 0abc e660 023c 64d8 453d 6efe 8dbc
00000110: aa89 253d 7cef 36bc 38d8 e03c 9fb7 25bc
00000120: 9a1d 2d3d f360 463d 333e 03bc d945 463c
00000130: 5666 edbc 64a1 d9bc 6fb2 463d 3e24 ac3c
00000140: 2a7d b5bc e8ce 59bd f716 7b3b 35b6 2bbc
00000150: 9c63 2dbd 6b1d d0bc 8d38 8b3c 6860 07bd
00000160: da67 b53c 40a6 1aba a9e3 5c3d 16b6 f4bc
00000170: 34a4 0fbb 6746 613d ec8d 513a 4740 07bd
00000180: 70cb 6d3c 6fb7 e33c a750 95bc 0bee 1fbd
00000190: 59aa 58bd 3c3e de3a 737b a5bb 2db8 e83c
000001a0: 3ede dc3c 2718 52bd b639 c03c f3b6 51bd
000001b0: 6df9 16bd 38f2 2cbd abb5 29bd 74fe 06bd
000001c0: 813f 2e3d 4bca 3e3d b40b 59bc e7c2 4e3d
000001d0: 2fd9 0c3d 3522 953c 4b23 9639 054f 533d
000001e0: bcdc 433c 1a88 2abd 4411 08bc a8c4 9ebc
000001f0: 6ccd f3bc 09eb 76bc a6e4 1cbd b5fb a93a
00000200: eacc 92bc 8db9 2dbd 9ff0 4fbd 35bc 013b
00000210: 537c 10bd e361 983c 1863 76bc 2a89 f0bc
00000220: 507d 70bb 7019 53bc 07e3 e2bc 294e 503d
00000230: dad4 5abc cedc ddbc d49a 323d 231f 19bd
00000240: f7e1 fab9 4d15 17bd 0568 303d 6831 33bc
00000250: cfce 3abd c801 dfbb d3a3 543d 986d 74bc
00000260: 3ac2 4abd d21c f43c f731 1ebd ec53 083d
00000270: 1175 093d 2e23 803c 6ad8 be3c 29ad f9bc
00000280: 2ba0 893c 9d61 cabc f250 6abd ed81 22bc
00000290: 68f3 fe3c b2c5 583c 0724 223d ddb9 8bbc
000002a0: bcf5 de3c 256b 2a3c e12f 08bb 7d83 07bc
000002b0: ff45 3d3d 5f15 d83c 1741 213d 84c0 02bc
000002c0: 5f5d 6cbc b4ad 0fbc 12cc 1cbb f498 383c
000002d0: 2000 5e3b 266b ae3c 065e 993c 407a 4d3a
000002e0: d9be f1bc 507f 4dbc 89b0 19bd 91c0 933c
000002f0: a5a4 2d3d 9fb8 333d 4aa6 a3bc 0fa4 023d
00000300: 7f09 57bd 84fc 593c 5996 02bd 7b70 56bd
00000310: 85ea 27bd 2c5d 53bc c499 1c3c e4fb 87bc
00000320: f381 1bbd 2c24 bc3c 54e1 f13c f5a3 cebc
00000330: 471c d33c db0f 153d a1c7 263d 49c6 32bc
00000340: 364c 1c3d 95ef 353d 98f7 133d 75e9 2c3d
00000350: 7177 54bd 2662 6ebc c26f 4b3d 4a27 3bbd
00000360: 0d96 df3b b744 15bd f874 6138 f0f9 3b3d
00000370: e298 363b b937 e1bc f2f2 18bd d4bf db3b
00000380: f8c8 2a3d 3de4 063d 7848 073d 0300 b13b
00000390: 00b4 fc3b b076 45bc 310c 093d dec4 b03c
000003a0: a8b1 513c 5bdb 65bc d9f0 0d3d dfc2 553d
000003b0: c11d 193d 564f eb3c ba9a cd3c f3a5 283d
000003c0: 686f 3dbd 53b3 6abb aa52 0b3c cc54 02bd
000003d0: f2d6 dcbc 5341 9cbc 4df2 32bd 09eb 303d
000003e0: 099e 51bd 43f6 adbc 29b6 473c 58a7 9a3b
000003f0: f77a c33c 2bf2 26bd f790 b63c 58d1 823c

transformer.encoder.layers.0.linear1.bias f4 [2048]
-0.003318909 -0.39840114 0.36093882 0.20213522 -0.15713573 0.111318834 0.3681853 -0.4264996
0.41803044 -0.026344057 -0.42068714 -0.057065718 0.28856537 0.10487508 0.49174973 -0.42448902
0.3230525 0.4644731 0.3210445 -0.4299475 0.3675222 0.13787293 -0.28967094 0.24356823
0.12808807 0.40690592 -0.24231046 0.33985445 -0.27467668 0.14069405 -0.21481836 0.09706824
0.10172083 0.34785584 -0.22949755 0.052320253 -0.108948395 -0.31331384 -0.07032098 -0.15938383
-0.0282393 0.4224032 0.40426752 0.45793992 0.25114763 -0.048116863 0.2865229 -0.38650095
0.37613478 -0.1730805 -0.1270516 0.08919444 0.10615555 0.38253734 0.33573487 -0.023754386
0.3206113 -0.17817968 0.24065539 -0.26556832 0.3958883 0.28349596 0.33552384 0.1304262
-0.11066234 -0.19601542 -0.075010106 -0.2871582 0.074834466 -0.045578163 -0.32926106 -0.050512943
0.11792411 -0.47706378 0.3621729 -0.37306035 -0.063089594 -0.16296124 0.08445315 -0.32699627
0.1990212 -0.4933511 -0.42555416 -0.2810418 -0.29304343 0.10730566 -0.02365122 0.05992873
-0.16846001 -0.17087847 -0.2453112 -0.0546883 -0.4334591 0.32709032 0.46491632 -0.3614838
-0.19852728 0.46469474 0.17117552 -0.4759224 -0.19321638 0.43051824 0.20295659 -0.018993743
0.36159796 0.39343423 -0.32774913 0.15596357 -0.08546421 0.13252844 0.03236221 0.03501485
-0.18138796 0.16479473 -0.13216817 -0.06283331 -0.013099638 0.0216269 -0.11213511 0.46744576
0.47266072 -0.22962582 0.07839726 0.16211277 -0.056911997 -0.3349203 0.081644334 0.43413845
0.18796614 -0.119905174 -0.02393568 0.4393024 0.35831237 -0.25548095 0.19986835 -0.19968891
0.22104639 -0.4287017 -0.4876883 -0.39614415 -0.024925625 -0.43260252 -0.44832677 -0.3156721
0.0013214821 0.13058129 -0.36564684 -0.33957362 -0.26269495 0.42500544 0.32539198 0.46581045
-0.33562386 -0.49573082 0.44579068 -0.3185715 -0.3386625 0.21736026 0.3022173 -0.28969288
-0.25607562 -0.33207744 0.001096668 -0.43319678 0.040015664 0.14897838 -0.1757884 0.09663199
0.10214877 0.44567826 0.19776487 0.087548494 -0.3810383 0.21438003 0.20261237 0.065388724
0.39929676 -0.05931386 0.04279603 0.005508834 0.28789055 0.39391407 0.18154474 -0.4232744
0.020188954 -0.04189435 0.059448827 0.1919267 0.16785584 0.17561544 0.3950647 -0.09369106
-0.48863852 0.34510967 -0.17737949 0.45686638 0.32612383 -0.3880027 -0.24834895 -0.11453782
0.38250417 0.5005369 -0.14977884 0.47022465 0.37377903 -0.21707028 0.09162343 0.1126918
0.161455 -0.4731983 -0.2548942 -0.40721476 0.24177407 -0.2189731 0.35884994 0.14004582
0.19841398 0.22947948 0.46306536 -0.11148373 0.38787675 -0.22704673 -0.46598744 -0.33966684
-0.19566697 0.13378356 0.393785 0.14452963 0.3481405 0.19439553 -0.3900231 -0.024422882
0.23302795 0.163132 -0.35651517 0.24634352 -0.18791962 0.46133417 0.3676847 -0.28391057
-0.31571555 -0.31259137 -0.29095638 0.23813605 -0.3624413 0.5004235 -0.46335024 0.23069379
0.057170443 -0.011781242 -0.023886092 -0.032862917 0.14497046 0.3968005 0.2715319 0.4289102
00000000: 0e82 59bb 3cfb cbbe f9cc b83e 89fc 4e3e
00000010: 30e8 20be 21fb e33d c982 bc3e 285e dabe
00000020: 1608 d63e 7ecf d7bc 4e64 d7be bebd 69bd
00000030: d7be 933e bfc8 d63d 9fc6 fb3e a056 d9be
00000040: 2367 a53e 6bcf ed3e f25f a43e 1422 dcbe
00000050: df2b bc3e 902e 0d3e c04f 94be f369 793e
00000060: 8529 033e f955 d03e 3c20 78be 6701 ae3e
00000070: 6ca2 8cbe 1a12 103e 58f9 5bbe b7cb c63d
00000080: 0353 d03d 291a b23e 6801 6bbe c34d 563d
00000090: 5620 dfbd ac6a a0be 7204 90bd 8435 23be
000000a0: 1b56 e7bc 3b45 d83e 27fc ce3e 1a77 ea3e
000000b0: 6c96 803e 3016 45bd 21b3 923e 74e3 c5be
000000c0: bd94 c03e 043c 31be d119 02be 93ab b63d
000000d0: 1568 d93d efdb c33e 71e5 ab3e 8f98 c2bc
000000e0: 2a27 a43e bc74 36be 5e6e 763e 92f8 87be
000000f0: dfb1 ca3e 6226 913e c8c9 ab3e 728e 053e
00000100: f0a2 e2bd 44b8 48be e69e 99bd 6606 93be
00000110: d042 993d 2bb0 3abd e894 a8be a9e6 4ebd
00000120: 3282 f13d b441 f4be ba6e b93e c401 bfbe
00000130: 1e35 81bd 50df 26be c6f5 ac3d 0e6c a7be
00000140: 37cc 4b3e 8498 fcbe 3ce2 d9be b6e4 8fbe
00000150: ca09 96be 12c3 db3d 34c0 c1bc d477 753d
00000160: c880 2cbe c4fa 2ebe dc32 7bbe d700 60bd
00000170: 5aee ddbe 6278 a73e 8309 ee3e 6814 b9be
00000180: bc4a 4bbe 78ec ed3e a348 2f3e 1aac f3be
00000190: 84da 45be e36c dc3e dad3 4f3e c498 9bbc
000001a0: 5e23 b93e 3670 c93e bcce a7be eab4 1f3e
000001b0: dc07 afbd 89b5 073e 3d8e 043d bb6b 0f3d
000001c0: c4bd 39be f3bf 283e 1857 07be c0ae 80bd
000001d0: dd9f 56bc e62a b13c 18a7 e5bd 0d55 ef3e
000001e0: 9600 f23e 0823 6bbe be8e a03d e400 263e
000001f0: 8e1c 69bd ac7a abbe 2535 a73d 6547 de3e
00000200: 327a 403e d890 f5bd c214 c4bc 3fec e03e
00000210: b874 b73e 66ce 82be 4aaa 4c3e 407b 4cbe
00000220: fc59 623e ca7e dbbe 48b2 f9be 68d3 cabe
00000230: d330 ccbc 147e ddbe 168b e5be c69f a1be
00000240: 9535 ad3a 1ab7 053e 1036 bbbe 98dc adbe
00000250: f47f 86be 509a d93e c799 a63e b57e ee3e
00000260: e4d6 abbe 6ed0 fdbe ad3e e43e ce1b a3be
00000270: 2c65 adbe b093 5e3e 3abc 9a3e a052 94be
00000280: 581c 83be 0e06 aabe 12be 8f3a f8cb ddbe
00000290: 77e7 233d ca8d 183e e001 34be fee6 c53d
000002a0: 6033 d13d f12f e43e e082 4a3e a04c b33d
000002b0: 7417 c3be 7086 5b3e 9e79 4f3e 86ea 853d
000002c0: a070 cc3e 17f3 72bd e44a 2f3d 7383 b43b
000002d0: 6466 933e 1baf c93e dde6 393e 6cb7 d8be
000002e0: 4e63 a53c 6999 2bbd 9d80 733d 6f88 443e
000002f0: 67e2 2b3e 89d4 333e ec45 ca3e 19e1 bfbd
00000300: d42e fabe 37b2 b03e f8a2 35be 64ea e93e
00000310: b4f9 a63e 4aa8 c6be 304f 7ebe ce92 eabd
00000320: 96d7 c33e 3023 003f a05f 19be 49c1 f03e
00000330: f75f bf3e ac47 5ebe 11a5 bb3d f5ca e63d
00000340: 7654 253e 0c47 f2be 7e81 82be 747e d0be
00000350: 9f93 773e 7c3a 60be 2ebb b73e 2c68 0f3e
00000360: 092d 4b3e abfc 6a3e e716 ed3e 9551 e4bd
00000370: c897 c63e f07e 68be e895 eebe d0e8 adbe
00000380: ec5c 48be 8ffe 083e 309e c93e 93ff 133e
00000390: 793f b23e 9f0f 473e 1cb1 c7be 7f12 c8bc
000003a0: e19e 6e3e 130c 273e 2889 b6be 7a41 7c3e
000003b0: 006e 40be fe33 ec3e 2b41 bc3e ba5c 91be
000003c0: 78a5 a1be fa0b a0be 3cf8 94be f0d9 733e
000003d0: e891 b9be c11b 003f 3e3c edbe fe3a 6c3e
000003e0: 8e2b 6a3d 1c06 41bc c4ac c3bc 449b 06bd
000003f0: 2373 143e 6f29 cb3e 3b06 8b3e 1e9a db3e

transformer.encoder.layers.0.linear2.weight f4 [4, 2048]
0.054473497 -0.038731754 0.035830736 0.022820305 0.03520495 0.0037644429 0.03287113 -0.012359526
0.02644735 -0.022024991 0.049798954 -0.0017759805 0.0017197062 -0.038856834 -0.00366388 -0.014911745
0.03605625 0.029305775 -0.033087447 -0.033900008 0.0017020144 0.0460402 0.011329543 0.00285524
-0.0309295 0.0065253437 -0.034984577 -0.038596697 -0.030215193 0.04392748 0.02081791 -0.053337324
0.011531131 0.045944802 -0.016776897 0.030287132 0.036445435 0.04548117 -0.042547222 -0.03723709
0.0069469516 -0.020743776 0.016293718 -0.011535712 0.002228601 -0.0085600875 0.009704009 0.04057273
-0.035008013 0.0151636265 0.012686533 0.0035489176 -0.0042992267 -0.050331976 0.022466563 0.0057988395
0.02699101 0.050898287 0.04204962 0.038356658 0.040242262 -0.024103856 -0.040982816 -0.0024562066
0.020821359 0.023409057 0.009132064 0.0026027337 0.03353515 0.020323051 0.025693681 0.0075871088
-0.007600536 -0.0070109256 -0.038675867 0.046891008 -0.03324389 -0.046755422 0.04966824 0.004211068
0.016604915 -0.02504627 -0.04118307 0.011113044 0.018492963 0.028458884 -0.035304364 -0.04816458
0.016971935 0.040119562 0.045356203 -0.028605977 0.019278701 -0.026244044 0.03451416 0.018817563
0.035570275 -0.017652491 0.01722338 -0.037930503 -0.027851168 0.043384317 -0.0013735829 0.05111689
0.019410986 -0.03721889 0.005208656 0.02521137 -0.04570359 -0.01927185 -0.029276604 0.026083695
0.0029600412 0.03897236 0.03893226 -0.026286472 -0.027669117 0.042449497 -0.01914803 -0.050943457
-0.054018717 0.047593545 0.013494779 0.0026707146 -0.00564271 0.049979333 0.009280451 -0.04706945
-0.00082607317 -0.015046641 0.02761497 0.009780414 -0.043156486 0.018030178 0.04416686 -0.052983604
0.0043244744 0.04733626 -0.006467771 0.018164333 0.036212686 -0.023567026 0.045140672 -0.04084104
0.018784117 0.015033411 -0.0481857 -0.025547093 0.015225772 0.011788177 0.051818203 -0.037970755
-0.022439186 -0.03429524 -0.013844101 -0.0068536364 -0.034231912 0.046778444 0.022244966 0.005472772
0.005382519 -0.010051254 -0.0125641255 -0.04552933 0.01322742 -0.048857693 0.032365073 0.035996184
-0.02836447 0.0021521281 0.034457885 -0.030815829 -0.0058680736 -0.023017634 -0.054585833 0.00034803723
0.021033555 0.022876976 0.047678042 -0.001403723 -0.012976475 0.031711154 0.0298846 0.052742098
0.012719128 -0.013812801 0.04518411 -0.032341048 0.016152358 -0.04503834 -0.0489514 -0.053824507
0.03601316 0.0016136367 0.03167258 0.04423146 0.030244887 -0.02590132 -0.0094025135 -0.017882977
-0.017272044 0.031195585 0.044272523 -0.007190048 -0.010442024 0.04742499 0.044328485 -0.02421159
-0.026338566 0.047750365 -0.016042467 0.015482362 0.03708157 0.044078816 0.052569732 0.047003478
-0.0009398568 -0.017656505 -0.044116616 -0.0227363 0.0058425916 0.005671274 -0.050463933 -0.011126962
-0.035440087 0.015043298 0.014370359 0.014263732 0.051993888 -0.008528934 -0.043378934 -0.040247176
0.01247033 -0.044479746 0.023933824 -0.046118636 0.0013051219 -0.017175311 -0.015693182 0.002930358
-0.0048610307 0.048836056 0.036489625 -0.0004936521 -0.04003348 -0.016347207 0.04175957 -0.02959
-0.054291826 -0.009189445 0.00036109114 -0.03055717 -0.0007600855 -0.032217328 -0.028828003 0.016929539
00000000: 9a1f 5f3d 30a5 1ebd 40c3 123d a6f1 ba3c
00000010: 1133 103d dfb4 763b e1a3 063d 9c7f 4abc
00000020: 1da8 d83c c16d b4bc fdf9 4b3d 04c8 e8ba
00000030: c467 e13a 5828 1fbd b51d 70bb 6450 74bc
00000040: b8af 133d aa12 f03c b486 07bd bcda 0abd
00000050: 2016 df3a a694 3c3d 8c9f 393c fa1e 3b3b
00000060: dd5f fdbc 8dd2 d53b fd4b 0fbd 9217 1ebd
00000070: da85 f7bc 4ded 333d 528a aa3c 3d78 5abd
00000080: 12ed 3c3c 9e30 3c3d b46f 89bc b81c f83c
00000090: cf47 153d 774a 3a3d ff45 2ebd eb85 18bd
000000a0: 41a3 e33b daee a9bc 677a 853c 4800 3dbc
000000b0: b80d 123b 9c3f 0cbc 90fd 1e3c 972f 263d
000000c0: 9064 0fbd dc70 783c 2ddb 4f3c f594 683b
000000d0: 87e0 8cbb e728 4ebd cc0b b83c 3104 be3b
000000e0: 401c dd3c b97a 503d 393c 2c3d df1b 1d3d
000000f0: 12d5 243d 7375 c5bc 99dd 27bd 4ff8 20bb
00000100: 8e91 aa3c 5ac4 bf3c a79e 153c a092 2a3b
00000110: 275c 093d 877c a63c 8e7b d23c 489d f83b
00000120: eb0d f9bb e8bb e5bb 966a 1ebd c910 403d
00000130: bf2a 08bd 9d82 3fbd ed70 4b3d 00fd 893b
00000140: 0807 883c d62d cdbc 94af 28bd 7c13 363c
00000150: 8e7e 973c 9b22 e93c 4f9b 10bd 3948 45bd
00000160: ba08 8b3c 6954 243d 6dc7 393d 1557 eabc
00000170: 5eee 9d3c c0fd d6bc b85e 0d3d 4a27 9a3c
00000180: 23b2 113d f59b 90bc 0c18 8d3c 045d 1bbd
00000190: 2228 e4bc c1b3 313d cb09 b4ba f25f 513d
000001a0: ca03 9f3c d672 18bd 60ad aa3b 1388 ce3c
000001b0: b033 3bbd 00e0 9dbc 7dd5 efbc 79ad d53c
000001c0: 40fd 413b 7ba1 1f3d 6f77 1f3d ba56 d7bc
000001d0: 58aa e2bc 86df 2d3d 54dc 9cbc 16aa 50bd
000001e0: bb42 5dbd 73f1 423d 3519 5d3c 2807 2f3b
000001f0: 7be6 b8bb 21b7 4c3d 080d 183c e5cb 40bd
00000200: d58c 58ba 3086 76bc ca38 e23c 083e 203c
00000210: dbc4 30bd 06b4 933c 4fe8 343d 5605 59bd
00000220: 52b4 8d3b abe3 413d 98ef d3bb 5ecd 943c
00000230: c153 143d a30f c1bc 6de5 383d ef48 27bd
00000240: 26e1 993c b24e 763c 5e5e 45bd 2348 d1bc
00000250: 8475 793c 3323 413c 533f 543d 3987 1bbd
00000260: 62d2 b7bc 2a79 0cbd 5ed2 62bc 7894 e0bb
00000270: c336 0cbd c19a 3f3d 133b b63c f054 b33b
00000280: d85f b03b 04ae 24bc c3d9 4dbc f67c 3abd
00000290: d2b7 583c 011f 48bd 3d91 043d bc70 133d
000002a0: 9b5c e8bc b80a 0d3b b623 0d3d 7a71 fcbc
000002b0: f848 c0bb 7a8f bcbc 6595 5fbd c478 b639
000002c0: 904e ac3c 7f68 bb3c 0d4a 433d 21fd b7ba
000002d0: 489b 54bc 8ee3 013d 8cd0 f43c 1908 583d
000002e0: e463 503c 164f 62bc f912 393d 0c78 04bd
000002f0: f351 843c 1f7a 38bd 4381 48bd 1677 5cbd
00000300: 8982 133d aa80 d33a 1bbb 013d 0c2c 353d
00000310: 20c4 f73c 012f d4bc 000d 1abc 527f 92bc
00000320: 1a7e 8dbc e28d ff3c 1b57 353d 7f9a ebbb
00000330: 0615 2bbc b540 423d c991 353d 6257 c6bc
00000340: fac3 d7bc e395 433d 7e6b 83bc bca9 7d3c
00000350: d8e2 173d fd8b 343d 5c53 573d b886 403d
00000360: b960 76ba 60a4 90bc a0b3 34bd 7a41 babc
00000370: 3673 bf3b 18d6 b93b 45b3 4ebd dc4d 36bc
00000380: a029 11bd 2a78 763c a771 6b3c 6eb2 693c
00000390: 8bf7 543d f1bc 0bbc 1cae 31bd 39da 24bd
000003a0: 5b50 4c3c 6530 36bd de10 c43c e5e6 3cbd
000003b0: a010 ab3a 3db3 8cbc fd8e 80bc 400b 403b
000003c0: 4849 9fbb 5108 483d 2576 153d 6f68 01ba
000003d0: 25fa 23bd 94ea 85bc 150c 2b3d ba66 f2bc
000003e0: 1b61 5ebd 538f 16bc d550 bd39 0853 fabc
000003f0: 7940 47ba 51f6 03bd b428 ecbc d1af 8a3c

transformer.encoder.layers.0.linear2.bias f4 [4]
0.018433705 -0.005340399 0.0022586104 0.02071374
00000000: 4802 973c 84fe aebb 3205 143b dcaf a93c

transformer.encoder.layers.0.norm1.weight f4 [4]
1.0033566 1.0039184 1.0040503 0.9984995
00000000: fd6d 803f 6680 803f b884 803f aa9d 7f3f

transformer.encoder.layers.0.norm1.bias f4 [4]
-0.00063705584 -0.0028350493 -0.0026505466 0.003830188
00000000: 1800 27ba 3ccc 39bb cbb4 2dbb e403 7b3b

transformer.encoder.layers.0.norm2.weight f4 [4]
1.00113 1.0031414 0.9989661 1.0016487
00000000: 0725 803f f066 803f 3ebc 7f3f 0636 803f

transformer.encoder.layers.0.norm2.bias f4 [4]
-0.0019749464 -0.0022748972 -0.004286371 0.004749524
00000000: 1a6e 01bb 7116 15bb b074 8cbb e5a1 9b3b

transformer.encoder.layers.1.self_attn.in_proj_weight f4 [12, 4]
0.054396357 0.2859703 -0.08066241 -0.16861215 -0.24200974 0.56881845 0.29806948 0.494753
0.41316542 -0.48534465 0.2987759 0.4390312 -0.36861777 -0.278088 -0.475425 0.059123084
0.28538573 0.37318683 0.45958632 0.016535977 0.2006777 -0.2773564 -0.10789148 0.6192034
0.4351401 -0.432639 -0.5668567 -0.25359625 -0.28079093 -0.20283665 -0.1855524 0.012759199
0.17800015 0.5834073 -0.5790241 0.015745422 0.087645926 -0.35468805 -0.31394377 0.32714203
-0.398893 0.31815448 -0.19575259 -0.3835785 -0.1562447 0.038703088 0.5078486 0.06551859
00000000: b7ce 5e3d b36a 923e 5532 a5bd aaa8 2cbe
00000010: 67d1 77be 169e 113f 909c 983e 4450 fd3e
00000020: 6b8a d33e 187f f8be 28f9 983e b3c8 e03e
00000030: 78bb bcbe 8d61 8ebe e86a f3be 0c2b 723d
00000040: 141e 923e 5812 bf3e e64e eb3e 7576 873c
00000050: 747e 4d3e a801 8ebe 35f6 dcbd 1d84 1e3f
00000060: afca de3e dc82 ddbe 851d 11bf 5ed7 81be
00000070: d4c3 8fbe 69b4 4fbe 7301 3ebe f60b 513c
00000080: ac45 363e 2e5a 153f ec3a 14bf 8bfc 803c
00000090: b57f b33d ac99 b5be 3dbd a0be 297f a73e
000000a0: b43b ccbe 25e5 a23e 5e73 48be 6764 c4be
000000b0: 9cfe 1fbe 2187 1e3d 5e02 023f 9c2e 863d

transformer.encoder.layers.1.self_attn.in_proj_bias f4 [12]
-0.0005625064 0.006382895 -0.0028824485 -0.0036207351 1.3145802e-05 -1.209178e-05 -1.4659119e-05 -2.9913726e-06
-0.0029002875 5.1227747e-05 0.0041787643 0.00047645348
00000000: 2a75 13ba 9b27 d13b 76e7 3cbb db49 6dbb
00000010: ca8c 5c37 cddd 4ab7 70f0 75b7 64bf 48b6
00000020: c012 3ebb 60dd 5638 04ee 883b 81cc f939

transformer.encoder.layers.1.self_attn.out_proj.weight f4 [4, 4]
0.6879041 0.68134487 -0.31416833 0.3871862 0.46808955 -0.12963198 -0.32888505 0.45757148
-0.78292257 -0.6110147 -0.7269325 0.5171036 -0.70143515 -0.3757976 0.31696394 0.49123865
00000000: 7c1a 303f 9e6c 2e3f acda a0be 453d c63e
00000010: 6fa9 ef3e 3fbe 04be 9f63 a8be cf46 ea3e
00000020: 9d6d 48bf 766b 1cbf 4018 3abf e760 043f
00000030: 4191 33bf 8b68 c0be 1949 a23e a283 fb3e

transformer.encoder.layers.1.self_attn.out_proj.bias f4 [4]
0.0001012655 -0.0048259627 -0.0045755664 0.004057314
00000000: 805e d438 1c23 9ebb a2ee 95bb 37f3 843b

transformer.encoder.layers.1.linear1.weight f4 [2048, 4]
-0.054905172 -0.0336499 0.011277906 -0.008561131 0.006871093 0.010326158 -0.04732922 0.052761074
0.03454624 0.05374727 0.04954025 -0.03780872 -0.026754368 0.04236387 0.017097725 0.047895692
-0.01784657 0.03711966 -0.026794704 -0.039891522 -0.002179676 0.047097012 -0.04035059 -0.03911914
0.052257814 -0.0022471764 -0.008566053 0.007638406 -0.044992696 -0.04865374 0.028396357 -0.03562706
0.007722989 0.0015831087 0.040329248 0.02865831 0.037808415 0.018564595 -0.019482434 -0.051174622
-0.040036567 -0.04231092 -0.04008033 -0.013882037 -0.04995983 -0.0062264265 -0.045148734 0.026557589
0.033600014 -0.031980943 -0.020853318 -0.031177962 -0.008869308 -0.0007196204 0.008429314 0.014615343
-0.048701167 -0.046267923 -0.044535495 0.04305831 -0.043159075 -0.019557338 0.026664432 0.05228379
0.0011832947 0.05259912 -0.004893878 0.039241612 0.0007950885 -0.015796827 -0.007660172 0.01717753
-0.00713943 0.05153651 -0.025084246 0.044332873 -0.044914465 -0.033003442 -0.040200233 0.043541487
0.04698043 0.029932253 -0.05620362 -0.0050838036 -0.028929658 0.008805137 0.047673993 0.017400311
-0.0034076795 0.049785104 -0.03033839 0.04111596 0.044503476 0.049046315 0.045177218 -0.012270898
-0.049426403 -0.020108508 -0.043738652 0.011335946 0.026753696 -0.0011351353 -0.021300955 -0.0072893635
0.008221194 0.030126717 0.008522164 0.0019178167 -0.02337563 0.049640834 0.019961834 -0.01795054
-0.037129402 0.043191943 -0.034779884 -0.045286413 -0.031664778 -0.012107543 -0.006909297 -0.05330415
-0.0439518 0.045916084 0.00048593432 -0.049000423 -0.039836634 -0.057807837 -0.015962668 -0.016619172
-0.03690289 0.036538668 -0.05815119 -0.04981686 0.05243374 -0.029707659 0.03362352 -0.056577276
-0.011195108 0.04232196 -0.052356612 -0.028988551 -0.0041899015 -0.04782202 -0.040482875 0.0061083734
-0.0021906353 -0.04467399 0.04477986 0.041051894 -0.05071362 -0.011309091 -0.03629516 -0.028981898
-0.029233515 -0.046296325 0.01375661 -0.027683219 0.01062062 0.004328016 0.017157588 -0.051454067
0.04053761 -0.022025317 -0.028392369 -0.043490976 0.04015317 -0.035915338 0.02241236 -0.01936474
0.052839015 0.04123608 0.041299824 0.019956162 -0.023303665 0.0064930273 0.038978975 0.0078997975
-0.029660981 0.02211431 0.029039394 -0.016811777 -0.0013144591 0.0015576156 -0.050664436 0.0075988434
-0.04449335 -0.035788696 0.024537532 -0.0159031 0.009115685 -0.002664514 0.032825384 -0.052992336
0.020097729 0.036290042 -0.05005982 -0.04677399 -0.00814385 0.04109012 0.005514942 -0.031393982
-0.049605113 -0.028523225 -0.026910909 -0.0029189289 -0.03035205 -0.0397005 -0.036665715 -0.009437679
0.04916859 0.0058316044 -0.0067081205 -0.021393118 0.03861435 0.03978329 0.031979203 -0.0010621167
-0.031979352 -0.023573881 -0.01962957 -0.03945281 -0.05328171 0.03143665 -0.005539065 0.0068247844
0.028539497 0.051483385 -0.033898044 -0.0036012097 0.007774163 -0.002893474 0.041632187 0.002791658
-0.036767736 -0.050467636 0.011930012 -0.045722816 -0.0059884787 0.034113374 -0.012008518 -0.047220882
-0.056050073 0.008379125 -0.022982439 0.02713979 -0.0050295284 -0.049329065 -0.05942714 -0.02262257
-0.016525835 0.05497991 -0.049206536 0.018992452 -0.026892448 0.031937674 -0.039860792 -0.00080746796
00000000: 3fe4 60bd 7ad4 09bd f7c6 383c fc43 0cbc
00000010: e826 e13b 0c2f 293c 49dc 41bd ff1b 583d
00000020: 5c80 0d3d 1926 5c3d b8ea 4a3d 51dd 1abd
00000030: fa2b dbbc bd85 2d3d 8710 8c3c 462e 443d
00000040: f832 92bc c90a 183d 9180 dbbc 4b65 23bd
00000050: e5d8 0ebb cce8 403d a946 25bd 643b 20bd
00000060: 4a0c 563d 5d45 13bb a158 0cbc 984b fa3b
00000070: 434a 38bd 2549 47bd 7a9f e83c aeed 11bd
00000080: 2111 fd3b 5080 cf3a 4830 253d d5c4 ea3c
00000090: ffdc 1a3d c714 983c a099 9fbc 7b9c 51bd
000000a0: 62fd 23bd 374e 2dbd 462b 24bd 7c71 63bc
000000b0: aea2 4cbd 0d07 ccbb e1ed 38bd 4d8f d93c
000000c0: 2ba0 093d 73fe 02bd 94d4 aabc ed68 ffbc
000000d0: 9350 11bc e8a4 3cba 1b1b 0a3c 3175 6f3c
000000e0: e07a 47bd 6f83 3dbd da6a 36bd e95d 303d
000000f0: 92c7 30bd b636 a0bc 5e6f da3c 8727 563d
00000100: c818 9b3a 2d72 573d d35c a0bb d0bb 203d
00000110: 7c6d 503a 5968 81bc 2e02 fbbb e4b7 8c3c
00000120: e1f1 e9bb f317 533d 7a7d cdbc 6396 353d
00000130: 3bf8 37bd 9e2e 07bd 00a9 24bd 8f58 323d
00000140: 8d6e 403d 7c34 f53c c435 66bd 0996 a6bb
00000150: e4fd ecbc 6c43 103c ce45 433d 198b 8e3c
00000160: 6053 5fbb 77eb 4b3d 3788 f8bc 3569 283d
00000170: 4749 363d cae4 483d bf0b 393d e00b 49bc
00000180: 5773 4abd 99ba a4bc 4d27 33bd 67ba 393c
00000190: 912a db3c d2c8 94ba 577f aebc 9ddb eebb
000001a0: 30b2 063c 4ecc f63c 8ca0 0b3c 405f fb3a
000001b0: 407e bfbc 3054 4b3d 0087 a33c 030d 93bc
000001c0: 0015 18bd 09ea 303d 5a75 0ebd 3f7e 39bd
000001d0: edb2 01bd b75e 46bc 6267 e2bb 7455 5abd
000001e0: cd06 34bd 8112 3c3d 00c5 fe39 abb4 48bd
000001f0: bd2b 23bd e9c7 6cbd 24c4 82bc ee24 88bc
00000200: 7c27 17bd 92a9 153d f12f 6ebd c40c 4cbd
00000210: c3c4 563d 7a5d f3bc d1b8 093d 93bd 67bd
00000220: b06b 37bc cb59 2d3d e373 56bd 6679 edbc
00000230: 714b 89bb 06e1 43bd 5fd1 25bd c028 c83b
00000240: c390 0fbb 13fc 36bd 166b 373d 0826 283d
00000250: 16b9 4fbd c449 39bc 3caa 14bd 726b edbc
00000260: 207b efbc 37a1 3dbd 6863 613c ebc7 e2bc
00000270: 1c02 2e3c 08d2 8d3b 128e 8c3c 80c1 52bd
00000280: c40a 263d 706e b4bc 1d97 e8bc 9823 32bd
00000290: a677 243d f61b 13bd 209a b73c cea2 9ebc
000002a0: b96d 583d 2ae7 283d 012a 293d 1b7b a33c
000002b0: 54e7 bebc 76c3 d43b 6ba8 1f3d 276e 013c
000002c0: 96fb f2bc 1229 b53c 06e4 ed3c dab8 89bc
000002d0: ee49 acba e828 cc3a 8385 4fbd b8ff f83b
000002e0: a93e 36bd 2b97 12bd ef02 c93c 3847 82bc
000002f0: f459 153c 209f 2ebb e973 063d 7e0e 59bd
00000300: fea3 a43c dea4 143d 870b 4dbd 1596 3fbd
00000310: c86d 05bc 1d4e 283d b0b6 b43b fa96 00bd
00000320: bb2e 4bbd 8aa9 e9bc 4474 dcbc 804b 3fbb
00000330: dda4 f8bc fe9c 22bd ca2e 16bd 7fa0 1abc
00000340: 0165 493d 0b17 bf3b cbcf dbbb 9f40 afbc
00000350: 152a 1e3d cef3 223d a0fc 023d b936 8bba
00000360: c8fc 02bd 031e c1bc 31ce a0bc 4599 21bd
00000370: ec3d 5abd b7c3 003d 0c81 b5bb 71a2 df3b
00000380: aacb e93c 3ee0 523d add8 0abd 4602 6cbb
00000390: 68be fe3b 70a0 3dbb 8386 2a3d 40f4 363b
000003a0: c499 16bd 27b7 4ebd 1976 433c d947 3bbd
000003b0: 003b c4bb 77ba 0b3d 60bf 44bc af6a 41bd
000003c0: c394 65bd 9948 093c ab45 bcbc 4454 de3c
000003d0: bece a4bb 460d 4abd df69 73bd f852 b9bc
000003e0: 3061 87bc 9d32 613d cb8c 49bd 0f96 9b3c
000003f0: 8d4d dcbc 14d1 023d 1245 23bd 42ac 53ba

transformer.encoder.layers.1.linear1.bias f4 [2048]
0.0024151846 -0.39840114 0.36108896 0.21204811 -0.15713573 0.117311 0.3646454 -0.4264996
0.42224038 -0.0254839 -0.42068714 -0.046163447 0.29647928 0.097662225 0.49376032 -0.42448902
0.3276244 0.45649683 0.3265524 -0.4299475 0.36264685 0.14647105 -0.28967094 0.24331409
0.13166408 0.40387356 -0.24231046 0.33936286 -0.27467668 0.14068633 -0.21481836 0.104442306
0.098403014 0.34561446 -0.22949755 0.050874457 -0.10765547 -0.31331384 -0.080742314 -0.15938383
-0.025430039 0.42051163 0.40347055 0.45634788 0.25267354 -0.050937537 0.28626055 -0.38650095
0.3756823 -0.1730805 -0.123515785 0.08492827 0.10461452 0.3766709 0.34007588 -0.013956654
0.32774925 -0.17817968 0.23954546 -0.26556832 0.4009587 0.2808682 0.33850557 0.12307205
-0.11347169 -0.19601542 -0.07083404 -0.2871582 0.08375616 -0.047262713 -0.32926106 -0.05822385
0.118080646 -0.47706378 0.35503602 -0.37306035 -0.057402454 -0.16296124 0.07942399 -0.32699627
0.19200677 -0.4933511 -0.42555416 -0.2810418 -0.29304343 0.10658181 -0.01894498 0.067778215
-0.16846001 -0.17087847 -0.2453112 -0.06124144 -0.4334591 0.3215464 0.4668143 -0.3614838
-0.19852728 0.46076795 0.17925325 -0.4759224 -0.19321638 0.43187526 0.20176136 -0.007577858
0.3634876 0.39166313 -0.32774913 0.14665703 -0.08571541 0.14455733 0.023318207 0.03190574
-0.18138796 0.15896153 -0.13216817 -0.06504359 -0.008930298 0.022840494 -0.11213511 0.4680734
0.47732136 -0.22962582 0.07808238 0.16606611 -0.056909025 -0.3349203 0.07810552 0.4251711
0.18980996 -0.119905174 -0.027171068 0.44537798 0.3528116 -0.25548095 0.20366615 -0.19968891
0.22570941 -0.4287017 -0.4876883 -0.39614415 -0.030270815 -0.43260252 -0.44832677 -0.3156721
-0.0066558397 0.13359427 -0.36564684 -0.33957362 -0.26269495 0.41711938 0.3233034 0.47109652
-0.33562386 -0.49573082 0.4458542 -0.3185715 -0.3386625 0.21054727 0.29889652 -0.28969288
-0.25607562 -0.33207744 0.0056747464 -0.43319678 0.0460437 0.14805098 -0.1757884 0.08941146
0.10261136 0.4426117 0.1918811 0.081414364 -0.3810383 0.21628574 0.2102157 0.062182255
0.3976542 -0.053989235 0.037036076 0.01578588 0.28014404 0.40342778 0.17863956 -0.4232744
0.027298601 -0.03834516 0.06673279 0.18520898 0.1635879 0.18229447 0.39365962 -0.09404922
-0.48863852 0.34744474 -0.17737949 0.4621095 0.32494637 -0.3880027 -0.24834895 -0.1218425
0.38081548 0.50426555 -0.14977884 0.48008376 0.38181564 -0.21707028 0.094808504 0.112652875
0.16243058 -0.4731983 -0.2548942 -0.40721476 0.24221969 -0.2189731 0.3520681 0.13635638
0.20199485 0.2377251 0.4586401 -0.11193233 0.390098 -0.22704673 -0.46598744 -0.33966684
-0.19566697 0.14138071 0.39356983 0.14638647 0.34918484 0.19278052 -0.3900231 -0.030634314
0.23473278 0.16732363 -0.35651517 0.24025992 -0.18791962 0.45567355 0.37150434 -0.28391057
-0.31571555 -0.31259137 -0.29095638 0.2369335 -0.3624413 0.4961921 -0.46335024 0.23204237
0.062963694 -0.014783256 -0.02271959 -0.037232812 0.13654038 0.39009368 0.2668176 0.43229154
00000000: 1348 1e3b 3cfb cbbe a7e0 b83e 2423 593e
00000010: 30e8 20be c040 f03d cdb2 ba3e 285e dabe
00000020: e42f d83e 9dc3 d0bc 4e64 d7be e215 3dbd
00000030: 22cc 973e 2203 c83d 27ce fc3e a056 d9be
00000040: 63be a73e f4b9 e93e e031 a73e 1422 dcbe
00000050: d9ac b93e 82fc 153e c04f 94be 5427 793e
00000060: f3d2 063e 84c8 ce3e 3c20 78be f8c0 ad3e
00000070: 6ca2 8cbe 1410 103e 58f9 5bbe d9e5 d53d
00000080: 8587 c93d 61f4 b03e 6801 6bbe bc61 503d
00000090: 797a dcbd ac6a a0be 3a5c a5bd 8435 23be
000000a0: a852 d0bc 4d4d d73e b193 ce3e 6ea6 e93e
000000b0: 6d5e 813e e1a3 50bd be90 923e 74e3 c5be
000000c0: 6e59 c03e 043c 31be d8f5 fcbd dfee ad3d
000000d0: 2340 d63d 02db c03e 6d1e ae3e 73aa 64bc
000000e0: c0ce a73e bc74 36be 684b 753e 92f8 87be
000000f0: 754a cd3e f5cd 8f3e 9a50 ad3e 330d fc3d
00000100: d863 e8bd 44b8 48be 7011 91bd 6606 93be
00000110: 5a88 ab3d 8c96 41bd e894 a8be 227c 6ebd
00000120: 44d4 f13d b441 f4be 48c7 b53e c401 bfbe
00000130: d61e 6bbd 50df 26be 0ba9 a23d 0e6c a7be
00000140: 6c9d 443e 8498 fcbe 3ce2 d9be b6e4 8fbe
00000150: ca09 96be 9047 da3d 8132 9bbc 4ecf 8a3d
00000160: c880 2cbe c4fa 2ebe dc32 7bbe 4ed8 7abd
00000170: 5aee ddbe bba1 a43e 4902 ef3e 6814 b9be
00000180: bc4a 4bbe c7e9 eb3e 2a8e 373e 1aac f3be
00000190: 84da 45be c11e dd3e 889a 4e3e ae4f f8bb
000001a0: 0c1b ba3e 1288 c83e bcce a7be 432d 163e
000001b0: 908b afbd d606 143e d305 bf3c 98af 023d
000001c0: c4bd 39be d0c6 223e 1857 07be 9335 85bd
000001d0: 6250 12bc fd1b bb3c 18a7 e5bd 51a7 ef3e
000001e0: 7763 f43e 0823 6bbe a8e9 9f3d 3c0d 2a3e
000001f0: 7019 69bd ac7a abbe c9f5 9f3d 07b0 d93e
00000200: 8b5d 423e d890 f5bd dc95 debc 9508 e43e
00000210: b9a3 b43e 66ce 82be dc8d 503e 407b 4cbe
00000220: 5e20 673e ca7e dbbe 48b2 f9be 68d3 cabe
00000230: 80fa f7bc 147e ddbe 168b e5be c69f a1be
00000240: 3b19 dabb f0cc 083e 1036 bbbe 98dc adbe
00000250: f47f 86be ac90 d53e 0688 a53e 9033 f13e
00000260: e4d6 abbe 6ed0 fdbe 0047 e43e ce1b a3be
00000270: 2c65 adbe b499 573e f708 993e a052 94be
00000280: 581c 83be 0e06 aabe 39f3 b93b f8cb ddbe
00000290: 5298 3c3d ad9a 173e e001 34be 5b1d b73d
000002a0: e825 d23d 009e e23e 7b7c 443e 93bc a63d
000002b0: 7417 c3be 027a 5d3e c942 573e d2b2 7e3d
000002c0: 5599 cb3e d123 5dbd 24b3 173d 6451 813c
000002d0: 0a6f 8f3e 168e ce3e 4aed 363e 6cb7 d8be
000002e0: 51a1 df3c d10f 1dbd 33ab 883d 6ca7 3d3e
000002f0: 9683 273e 67ab 3a3e c18d c93e e19c c0bd
00000300: d42e fabe 47e4 b13e f8a2 35be 9e99 ec3e
00000310: 5f5f a63e 4aa8 c6be 304f 7ebe 9088 f9bd
00000320: 3ffa c23e 8c17 013f a05f 19be 8acd f53e
00000330: 577d c33e ac47 5ebe f62a c23d 8db6 e63d
00000340: 3454 263e 0c47 f2be 7e81 82be 747e d0be
00000350: 7008 783e 7c3a 60be 4542 b43e 02a1 0b3e
00000360: bdd7 4e3e 356e 733e e0d2 ea3e c73c e5bd
00000370: edba c73e f07e 68be e895 eebe d0e8 adbe
00000380: ec5c 48be 1bc6 103e fc81 c93e 56e6 153e
00000390: 5bc8 b23e 4268 453e 1cb1 c7be d0f4 fabc
000003a0: ca5d 703e e356 2b3e 2889 b6be b206 763e
000003b0: 006e 40be 0b4e e93e d135 be3e ba5c 91be
000003c0: 78a5 a1be fa0b a0be 3cf8 94be b29e 723e
000003d0: e891 b9be e40c fe3e 3e3c edbe 849c 6d3e
000003e0: 1cf3 803d 7835 72bc 6f1e babc 6f81 18bd
000003f0: 3ed1 0b3e 5cba c73e 519c 883e 5155 dd3e

transformer.encoder.layers.1.linear2.weight f4 [4, 2048]
-0.0031998488 0.0060790926 -0.04966744 0.0076734456 0.038969498 -0.03264798 -0.036533467 -0.023911564
0.045868013 0.037512463 -0.03108405 0.057400513 -0.025669986 0.037622944 0.05290214 -0.04485938
-0.004456998 0.050689295 0.053604376 0.03535134 -0.029608015 0.05258396 0.0031483583 0.051580567
0.014736955 -0.0104662785 0.03268737 0.028677393 -0.007309802 -0.03260939 -0.00037636235 0.053964775
0.028863726 0.011231635 0.033412274 -0.038985953 -0.0219964 0.047441456 -0.02741488 0.035241615
0.035752766 -0.027742906 -0.019512614 -0.03614609 0.032214984 -0.021202037 0.03833246 0.032361504
0.0046618283 0.024687957 -0.052386217 -0.04135046 -0.025654323 0.041100398 0.017693447 -0.000791505
-0.04126018 0.013295781 0.016422072 0.019660529 0.016451845 0.018092055 0.0015444774 -0.003956065
0.041920338 -0.046125483 0.028680328 0.02600002 -0.042155735 -0.04244939 -0.04463996 -0.023941685
0.01619113 -0.029195843 0.05291495 -0.007401336 0.057246268 -0.05273001 -0.00083579833 -0.042372845
-0.029781075 0.024820235 0.023662899 0.0070964396 0.015001077 -0.011617601 -0.013057193 -0.029211737
0.0052162856 -0.024024932 -0.051503636 -0.0461517 -0.015299633 -0.011841039 0.010780982 0.022762548
0.013239365 0.0059116418 -0.015734952 -9.6186996e-05 0.02978335 -0.050596602 0.022157438 0.028543279
0.012308347 -0.020504765 0.02004717 -0.0077615604 0.01560371 -0.013227857 -0.0132370265 0.013680406
-0.017966338 0.027538728 0.043421265 0.014329739 -0.0204653 0.016346522 0.038613353 -0.03860966
0.037974995 -0.0230776 0.05346798 -0.014631108 -0.03086372 -0.018548977 -0.02186253 -0.022309983
0.016196659 0.027993258 0.04306916 -0.0150061175 0.00456034 0.03319243 -0.023446893 0.0015527569
-0.043504026 -0.04129219 -0.009466633 0.012314338 -0.043491036 -0.042690974 -0.044875957 0.029701177
0.004996521 0.028704762 -0.037180383 -0.025176113 0.049477506 -0.03280848 -0.0292075 -0.04312346
-0.01693894 0.012922268 -0.0036887736 -0.0110808015 0.0061370917 0.028679365 0.029387198 0.03772032
-0.048363987 -0.016684968 -0.051129103 0.018927786 0.009099394 0.009565865 0.04748339 0.044249494
0.024253463 -0.014813286 -0.04754135 -0.0020027207 0.03177954 0.02037654 0.026166502 -0.037809003
0.0020847241 0.05216824 -0.02148903 0.046298206 0.054991692 -0.0485145 -0.021296043 0.02612755
-0.026692607 0.031963006 0.008589736 -0.046630796 0.00014551688 -0.010767285 -0.0037722562 0.03748694
-0.050608575 0.007659155 0.005323693 0.010474623 -0.032598823 -0.05012509 -0.00684746 0.042408925
0.02520805 -0.031770572 0.041436415 -0.043090127 -0.028634086 -0.027603645 -0.022554673 -0.018580308
0.013654123 -0.004635494 0.023030374 0.015232731 0.04184719 -0.0057759695 -0.04966065 0.036219075
-0.0022857876 -0.0019990948 -0.006557859 0.0012105436 0.013036328 0.04907116 -0.0021993183 -0.005870741
-0.0491969 -0.01076289 0.009317896 0.002296857 -0.01291463 -0.036656216 0.016646128 -0.028733324
0.04370665 -0.014154979 -0.01963235 0.0046403497 0.04102884 0.04233296 -0.05131543 -0.03501586
-0.014987517 0.018875312 -0.015825145 0.03258014 -0.04282794 0.03233432 -0.027304823 0.00091966125
-0.018717214 -0.021595491 -0.020138986 0.00095855957 -0.033527445 -0.019842107 0.04085535 -0.034053072
00000000: 8eb4 51bb 2033 c73b 1670 4bbd 8771 fb3b
00000010: 7b9e 1f3d e3b9 05bd 1ea4 15bd 2fe2 c3bc
00000020: 19e0 3b3d aba6 193d faa3 febc cd1c 6b3d
00000030: dd49 d2bc 841a 1a3d eaaf 583d 78be 37bd
00000040: 020c 92bb 949f 4f3d 4390 5b3d 91cc 103d
00000050: 828c f2bc 4762 573d b054 4e3b 2546 533d
00000060: 4573 713c c17a 2bbc 31e3 053d daec ea3c
00000070: 1087 efbb 6c91 05bd 8052 c5b9 2b0a 5d3d
00000080: 9f73 ec3c e404 383c 4fdb 083d bcaf 1fbd
00000090: cb31 b4bc f951 423d 2c95 e0bc 8359 103d
000000a0: 7e71 123d 1745 e3bc ebd8 9fbc ec0d 14bd
000000b0: dcf3 033d e5af adbc 7f02 1d3d 7f8d 043d
000000c0: 40c2 983b 663e ca3c ee92 56bd 1a5f 29bd
000000d0: 0429 d2bc e458 283d d9f1 903c 007d 4fba
000000e0: 6f00 29bd 8cd6 593c 9587 863c 1e0f a13c
000000f0: 05c6 863c ca35 943c 1070 ca3a e1a1 81bb
00000100: a9b4 2b3d 13ee 3cbd 02f3 ea3c fefd d43c
00000110: 7eab 2cbd 69df 2dbd 64d8 36bd 5a21 c4bc
00000120: 43a3 843c 1f2c efbc 59bd 583d e886 f2bb
00000130: 107b 6a3d 6cfb 57bd 7a19 5bba 268f 2dbd
00000140: 71f7 f3bc ce53 cb3c b2d8 c13c 4089 e83b
00000150: 14c7 753c c057 3ebc d6ed 55bc 744d efbc
00000160: 60ed aa3b efcf c4bc 7af5 52bd 9109 3dbd
00000170: 50ab 7abc eb00 42bc b7a2 303c 8678 ba3c
00000180: ece9 583c 72b6 c13b 96e6 80bc 00b8 c9b8
00000190: 36fc f33c 623e 4fbd 8483 b53c 98d3 e93c
000001a0: f3a8 493c 9cf9 a7bc f639 a43c b054 febb
000001b0: b4a6 7f3c a7b9 58bc 1de0 58bc c823 603c
000001c0: 242e 93bc e698 e13c 7fda 313d 48c7 6a3c
000001d0: d8a6 a7bc 24e9 853c 0929 1e3d 2a25 1ebd
000001e0: ab8b 1b3d 3c0d bdbc 3e01 5b3d 51b7 6fbc
000001f0: ead5 fcbc 06f4 97bc 0c19 b3bc 6dc3 b6bc
00000200: dbae 843c 1e52 e53c 4a69 303d 38dc 75bc
00000210: e86e 953b c9f4 073d b313 c0bc e085 cb3a
00000220: 4731 32bd 0022 29bd f019 1bbc 14c2 493c
00000230: a823 32bd bbdc 2ebd dacf 37bd e24f f33c
00000240: dbb9 a33b 4026 eb3c 754a 18bd 233e cebc
00000250: eda8 4a3d 2f62 06bd 9144 efbc 3aa2 30bd
00000260: 88c3 8abc ecb7 533c 5abf 71bb 408c 35bc
00000270: a819 c93b fdf0 ea3c 6cbd f03c 9f80 1a3d
00000280: 5119 46bd eaae 88bc c06c 51bd 720e 9b3c
00000290: a015 153c 25ba 1c3c f17d 423d f53e 353d
000002a0: 33af c63c 6db3 72bc b8ba 42bd 1440 03bb
000002b0: 432b 023d b4ec a63c 225b d63c 9ddd 1abd
000002c0: de9f 083b 5dae 553d c309 b0bc 30a3 3d3d
000002d0: f83e 613d 24b7 46bd 0a75 aebc 7209 d63c
000002e0: 74aa dabc a4eb 023d f7bb 0c3c efff 3ebd
000002f0: e495 1839 4469 30bc f537 77bb e88b 193d
00000300: f04a 4fbd a6f9 fa3b 6072 ae3b c19d 2b3c
00000310: 5886 05bd f74f 4dbd a860 e0bb fbb4 2d3d
00000320: 1d81 ce3c dc21 02bd 3bb9 293d 467f 30bd
00000330: 0892 eabc 0a21 e2bc 94c4 b8bc bb35 98bc
00000340: 8bb5 5f3c 58e5 97bb 32aa bc3c b492 793c
00000350: f667 2b3d 5844 bdbb f768 4bbd 745a 143d
00000360: 27cd 15bb 3f03 03bb 4fe3 d6bb 1aab 9e3a
00000370: 5396 553c d7fe 483d 7022 10bb 585f c0bb
00000380: b082 49bd d556 30bc 17aa 183c de86 163b
00000390: e297 53bc d424 16bd 765d 883c 2662 ebbc
000003a0: bf05 333d 49ea 67bc 06d4 a0bc 130e 983b
000003b0: db0d 283d 5365 2d3d 2130 52bd ca6c 0fbd
000003c0: 348e 75bc 66a0 9a3c bca3 81bc c172 053d
000003d0: 5a6c 2fbd fe70 043d 5dae dfbc 6c15 713a
000003e0: d854 99bc 07e9 b0bc 84fa a4bc d847 7b3a
000003f0: 1354 09bd ea8b a2bc f157 273d 3c7b 0bbd

transformer.encoder.layers.1.linear2.bias f4 [4]
0.020467767 -0.008994257 0.0007776528 0.021685509
00000000: 05ac a73c a65c 13bc 65db 4b3a cfa5 b13c

transformer.encoder.layers.1.norm1.weight f4 [4]
0.99955356 1.0003008 0.9974778 1.0033889
00000000: bee2 7f3f db09 803f b55a 7f3f 0c6f 803f

transformer.encoder.layers.1.norm1.bias f4 [4]
0.00092351646 -0.0056176344 -0.003860027 0.0043063513
00000000: 2418 723a 2214 b8bb 82f8 7cbb 4b1c 8d3b

transformer.encoder.layers.1.norm2.weight f4 [4]
0.9990217 1.0020305 0.99608237 1.0022457
00000000: e3bf 7f3f 8942 803f 41ff 7e3f 9649 803f

transformer.encoder.layers.1.norm2.bias f4 [4]
0.0013497854 -0.006012026 -0.003170143 0.0037724855
00000000: 48eb b03a 8800 c5bb 2dc2 4fbb ce3b 773b

transformer.encoder.norm.weight f4 [4]
1.0016667 0.9971227 0.9928307 0.9991919
00000000: 9d36 803f 6f43 7f3f 272a 7e3f 0acb 7f3f

transformer.encoder.norm.bias f4 [4]
6.596325e-06 -0.0023526642 -0.0020558755 -0.0005738731
00000000: 0056 dd36 282f 1abb debb 06bb f96f 16ba

transformer.decoder.layers.0.self_attn.in_proj_weight f4 [12, 4]
0.09836083 -0.23862457 -0.28044274 -0.38432646 -0.50368744 0.58711296 0.40094143 -0.4720525
0.015017833 0.25935432 -0.29842815 0.27585196 0.49976164 -0.54284817 -0.5703355 0.16986085
0.021879332 -0.36605975 0.17070366 -0.17278387 0.5287876 0.117665075 -0.3025932 -0.3335847
-0.030347476 0.50961727 -0.4428677 0.058863554 0.4893482 -0.032658827 -0.3540209 0.085446544
-0.36029738 -0.46086732 0.25378525 -0.32395133 -0.12354776 0.062494263 0.33338976 0.23592325
0.38347167 0.49805295 0.11000987 0.3967628 0.003172016 -0.6009742 -0.28598115 -0.42609254
00000000: 6771 c93d 005a 74be 3196 8fbe 70c6 c4be
00000010: a9f1 00bf 094d 163f 3248 cd3e deb0 f1be
00000020: 5b0d 763c 17ca 843e 93cb 98be 783c 8d3e
00000030: c2e0 ff3e 19f8 0abf 8201 12bf 01f0 2d3e
00000040: 493c b33c 2f6c bbbe f1cc 2e3e 41ee 30be
00000050: a05e 073f 63fa f03d 7fed 9abe 9dcb aabe
00000060: 459b f8bc 4776 023f 8ebf e2be e91a 713d
00000070: d98b fa3e 43c5 05bd 3a42 b5be 99fe ae3d
00000080: e678 b8be cdf6 ebbe 24f0 813e f3dc a5be
00000090: 9c06 fdbd fcf9 7f3d 10b2 aa3e dd95 713e
000000a0: 6656 c43e cc00 ff3e db4c e13d 7e24 cb3e
000000b0: 99e1 4f3b 72d9 19bf 1f6c 92be cd28 dabe

transformer.decoder.layers.0.self_attn.in_proj_bias f4 [12]
-0.0015703251 0.0013412703 0.0025552376 0.0032488639 -0.0003142873 0.00011802314 -0.00027710458 -1.6105327e-05
-0.0012850445 0.0016114826 0.0068379096 0.00059418916
00000000: 5ed3 cdba 90cd af3a c675 273b e4ea 543b
00000010: edc6 a4b9 3183 f738 5948 91b9 ed19 87b7
00000020: f06e a8ba 6238 d33a 8b10 e03b 5cc3 1b3a

transformer.decoder.layers.0.self_attn.out_proj.weight f4 [4, 4]
-0.049261637 -0.19215682 0.34393778 -0.7347427 0.1519225 0.7309959 -0.041298363 0.01888241
-0.50368357 0.73016864 -0.10485137 -0.013517739 0.75338405 -0.48853332 -0.28250578 -0.8406498
00000000: 92c6 49bd c2c4 44be 9d18 b03e 1918 3cbf
00000010: 9291 1b3e 8c22 3b3f 7928 29bd 49af 9a3c
00000020: 68f1 00bf 55ec 3a3f 51bc d6bd 8279 5dbc
00000030: c7dd 403f 0a21 fabe 99a4 90be d334 57bf

transformer.decoder.layers.0.self_attn.out_proj.bias f4 [4]
0.009174446 0.003100637 0.00020454155 -0.002227546
00000000: 6a50 163c 0f34 4b3b 347a 5639 05fc 11bb
